…
62555Z"},"id":"cIXIPVWwB1b8","outputId":"fa9429d0-fe38-4f7f-9c68-8546e563c198","colab":{"referenced_widgets":["5707dd598d964672baa521361503a24e"]}},"outputs":[{"output_type":"display_data","data":{"text/plain":"model.safetensors:   0%|          | 0.00/440M [00:00<?, ?B/s]","application/vnd.jupyter.widget-view+json":{"version_major":2,"version_minor":0,"model_id":"5707dd598d964672baa521361503a24e"}},"metadata":{}},{"execution_count":12,"output_type":"execute_result","data":{"text/plain":"HierarchicalBertClassifier(\n  (bert): BertModel(\n    (embeddings): BertEmbeddings(\n      (word_embeddings): Embedding(30522, 768, padding_idx=0)\n      (position_embeddings): Embedding(512, 768)\n      (token_type_embeddings): Embedding(2, 768)\n      (LayerNorm): LayerNorm((768,), eps=1e-12, elementwise_affine=True)\n      (dropout): Dropout(p=0.1, inplace=False)\n    )\n    (encoder): BertEncoder(\n      (layer): ModuleList(\n        (0-11): 12 x BertLayer(\n          (attention): BertAttention(\n            (self): BertSdpaSelfAttention(\n              (query): Linear(in_features=768, out_features=768, bias=True)\n              (key): Linear(in_features=768, out_features=768, bias=True)\n              (value): Linear(in_features=768, out_features=768, bias=True)\n              (dropout): Dropout(p=0.1, inplace=False)\n            )\n            (output): BertSelfOutput(\n              (dense): Linear(in_features=768, out_features=768, bias=True)\n              (LayerNorm): LayerNorm((768,), eps=1e-12, elementwise_affine=True)\n              (dropout): Dropout(p=0.1, inplace=False)\n            )\n          )\n          (intermediate): BertIntermediate(\n            (dense): Linear(in_features=768, out_features=3072, bias=True)\n            (intermediate_act_fn): GELUActivation()\n          )\n          (output): BertOutput(\n            (dense): Linear(in_features=3072, out_features=768, bias=True)\n            (LayerNorm): LayerNorm((768,), eps=1e-12, elementwise_affine=True)\n            (dropout): Dropout(p=0.1, inplace=False)\n          )\n        )\n      )\n    )\n    (pooler): BertPooler(\n      (dense): Linear(in_features=768, out_features=768, bias=True)\n      (activation): Tanh()\n    )\n  )\n  (dropout): Dropout(p=0.3, inplace=False)\n  (ia_hidden): Sequential(\n    (0): Linear(in_features=768, out_features=256, bias=True)\n    (1): ReLU()\n    (2): Dropout(p=0.3, inplace=False)\n  )\n  (ia_classifier): Linear(in_features=256, out_features=12, bias=True)\n  (ia_feature_extractor): Linear(in_features=12, out_features=256, bias=True)\n  (genome_hidden): Sequential(\n    (0): Linear(in_features=780, out_features=256, bias=True)\n    (1): ReLU()\n    (2): Dropout(p=0.3, inplace=False)\n  )\n  (genome_classifier): Linear(in_features=256, out_features=50, bias=True)\n  (genome_feature_extractor): Linear(in_features=50, out_features=256, bias=True)\n  (cross_attention): MultiheadAttention(\n    (out_proj): NonDynamicallyQuantizableLinear(in_features=256, out_features=256, bias=True)\n  )\n  (outcome_hidden): Sequential(\n    (0): Linear(in_features=1086, out_features=256, bias=True)\n    (1): ReLU()\n    (2): Dropout(p=0.3, inplace=False)\n  )\n  (outcome_classifier): Linear(in_features=256, out_features=289, bias=True)\n)"},"metadata":{}}],"execution_count":null},{"cell_type":"code","source":["#DataLoader\n","batch_size=16\n","train_dataloader=DataLoader(\n","    train_dataset,\n","    batch_size=batch_size\n",")\n","validation_dataloader=DataLoader(\n","    val_dataset,\n","    sampler=SequentialSampler(val_dataset),\n","    batch_size=batch_size\n",")"],"metadata":
…
